infinite-wardrobe-main/src/server/flask-backend/color_classifier.pth (torch, 182370 bytes, 6 tensors)

fc1.weight f4 [64, 3]
0	0xbe8ac52b	-0.27103552
1	0xbf37a69d	-0.71738607
2	0x3fca5930	1.5808468
3	0x3fc3fe25	1.5311934
4	0xbf436363	-0.7632353
5	0xbf4d7e37	-0.80270714
6	0x3e920e1a	0.28526384
7	0x40082f26	2.1278777
8	0xbf491cb8	-0.78559446
9	0x3ffa35b3	1.9547638
10	0x3f7688c3	0.9630243
11	0x3ea6a572	0.325481
12	0x3fbfd4b3	1.4986786
13	0xbfb3d811	-1.4050313
14	0x3f119c7d	0.5687941
15	0x3f1015f6	0.5628351
16	0x3ffc7bcd	1.9725281
17	0xbf435279	-0.7629772
18	0xbed619c8	-0.41816545
19	0xbea03d14	-0.312966
20	0xbf096334	-0.53666997
21	0xbea9974c	-0.33123243
22	0xbf84a2d3	-1.036219
23	0x3fe84c79	1.8148338
24	0x3f92485d	1.1428334
25	0xbf8ff90a	-1.1247876
26	0xbf884582	-1.0646212
27	0xbeefe31d	-0.4685296
28	0xbe84a3ac	-0.25906122
29	0xbe3de2ba	-0.1854352
30	0x3e733178	0.2374934
31	0xbf108108	-0.56446886
32	0xbee140a2	-0.43994623
33	0x3f3e9b77	0.7445597
34	0xbf4b9a93	-0.79532737
35	0x3fe0f0aa	1.7573445
36	0x3f15deaf	0.58542913
37	0x3fbbd9f4	1.4675889
38	0x3fdb66dd	1.7140766
39	0xbf6e8f80	-0.93187714
40	0x3fd7639c	1.6827273
41	0x3dd1bd5d	0.10241196
42	0x3fa6c3cc	1.3028502
43	0x3f477da8	0.7792611
44	0x3e2d2fa6	0.16912708
45	0x3d3524c0	0.0442245
46	0x3e80b95e	0.25141424
47	0xbe7c9916	-0.24667773
48	0x3d50d100	0.050980568
49	0xbe9a2f13	-0.3011404
50	0xbf06cd38	-0.5265689
51	0xbf791a39	-0.9730564
52	0xbe97d69c	-0.2965592
53	0x3f9edaa9	1.241048
54	0x3ea2bc4c	0.31784284
55	0xbe607406	-0.2191926
56	0xbeca009a	-0.39453584
57	0xbf6f64cc	-0.9351318
58	0x3fc1a8f9	1.5129691
59	0x3f8aec7c	1.0853419
60	0x3f5d79fa	0.86514246
61	0xbf0227bd	-0.50841886
62	0xbf9276e4	-1.1442533
63	0xbf3f3085	-0.7468341
64	0x3fe5ed8b	1.7963117
65	0xbf1eaf47	-0.619862
66	0xbf057292	-0.52127945
67	0xbdfe2af4	-0.124105364
68	0xbf322519	-0.69587857
69	0xbe5a2560	-0.2130332
70	0x3bb39680	0.0054805875
71	0x3e71e438	0.23622215
72	0x3fdb8411	1.7149678
73	0xbf84f55e	-1.038738
74	0xbc83e728	-0.016101435
75	0x3f2829eb	0.6568896
76	0xbfe44e88	-1.7836466
77	0x3fa09bf8	1.2547598
78	0xbf31ed2e	-0.6950253
79	0x3ff5d128	1.9204454
80	0x3f39fa46	0.7264751
81	0xbfa62468	-1.297986
82	0x3f88c2e9	1.0684482
83	0x3fb3f64c	1.4059539
84	0x3fcf79ea	1.620908
85	0xbf8b8254	-1.0899148
86	0xbe7e3ff6	-0.24829087
87	0xbe9a08c5	-0.30084816
88	0x3fac87e0	1.3478966
89	0xbfb6c061	-1.4277459
90	0x4000190f	2.0015295
91	0x3cd3a868	0.025837138
92	0xbd821860	-0.063523054
93	0x3ef64ca2	0.4810534
94	0xbfa67a78	-1.3006124
95	0x3ff54dcf	1.916437
96	0xbdc2ae9c	-0.0950596
97	0x3d5484d0	0.051884472
98	0xbe1863c2	-0.14881805
99	0xbe0610b6	-0.13092312
100	0xbe261330	-0.16218257
101	0xbf139beb	-0.57659787
102	0xbdc8ec14	-0.09810653
103	0x3f4a4e7b	0.79026
104	0xbfd2751f	-1.6441993
105	0x3f569a5c	0.83829284
106	0x3f58f09d	0.84742147
107	0xbf492b5a	-0.78581774
108	0xbe58d6e4	-0.21175724
109	0x3e174ef0	0.14776206
110	0x3de51808	0.11186224
111	0xbd1ced90	-0.038312495
112	0xbde7a534	-0.11310807
113	0x3e24cb08	0.16093075
114	0x3e5716ff	0.21004866
115	0xbfa8d3dc	-1.3189654
116	0x3d4d7d46	0.0501683
117	0xbe256419	-0.16151465
118	0x3fd0371d	1.6266819
119	0xbf9db19f	-1.2319831
120	0x3fa68628	1.3009691
121	0x3f0adbd9	0.5424171
122	0x3fdeabba	1.7396157
123	0xbebb0515	-0.36527315
124	0xbf9ee485	-1.2413489
125	0xbd673e87	-0.056456115
126	0xbf27750c	-0.65412974
127	0x3f09c636	0.5381807
128	0x3ff2f9a1	1.8982431
129	0x3eda896e	0.42682976
130	0x40001a2b	2.0015972
131	0x3d902ad4	0.07039419
132	0x3ffdc54c	1.9825835
133	0xbf265137	-0.64967674
134	0x3f432dc0	0.76241684
135	0x3fc81b70	1.5633373
136	0x3f53b47b	0.82697266
137	0xbecf1acc	-0.40450132
138	0xbf4b7411	-0.7947398
139	0x3ffb271a	1.9621308
140	0x3e8e58e8	0.27802205
141	0xbe19ca7a	-0.15018645
142	0xbf5f4978	-0.8722148
143	0x3fe30663	1.7736324
144	0x3efe069e	0.49614424
145	0x3f8ab3b7	1.0836095
146	0x3fe1aa0b	1.7630018
147	0xbfada4d9	-1.3565933
148	0x3faa7681	1.3317415
149	0x3f8ab322	1.0835917
150	0x3c2569c0	0.010096014
151	0xbeef7608	-0.46769738
152	0x3e634540	0.22194386
153	0xbf828db4	-1.0199494
154	0x3eb13fd7	0.34619018
155	0xbf82029e	-1.0157049
156	0x3fc0a39b	1.5049928
157	0x3f3193fd	0.6936644
158	0x3f8b8c70	1.0902233
159	0x3d810d08	0.06301314
160	0xbe321c46	-0.17393598
161	0x3e69c93c	0.22830671
162	0x3fef77e9	1.8708469
163	0x3f082598	0.53182364
164	0x3e7e3315	0.24824174
165	0x3eced118	0.403939
166	0x3f6b4498	0.9190154
167	0xbfa7e3bd	-1.3116375
168	0x3f6763ab	0.90386456
169	0x3cacf5c4	0.021113284
170	0x3ff4b643	1.9118122
171	0xbf88226a	-1.0635502
172	0xbd9654e7	-0.073404126
173	0x3f6e8ddd	0.93185216
174	0x3f9a7a1e	1.2068517
175	0x3fada242	1.3565142
176	0xbfb9c28c	-1.4512496
177	0x3d9ed160	0.07754779
178	0xbe680006	-0.22656259
179	0x3e26b360	0.16279364
180	0x3fc6b9cb	1.552545
181	0x3f5830d4	0.84449506
182	0x3f48857d	0.78328687
183	0x3f9b3962	1.2126887
184	0x3fa7008c	1.3047042
185	0x3eeb49f0	0.45954847
186	0xbf66da56	-0.90176904
187	0xbf4ce56a	-0.8003756
188	0x3f8e1af9	1.1101981
189	0xbf76c52b	-0.96394604
190	0x3f9718a8	1.18044
191	0x3fc8c364	1.5684628

fc1.bias f4 [64]
0	0x3f37178b	0.715203
1	0x3f9532e6	1.1656158
2	0x3e99c873	0.30035743
3	0xbe9da83f	-0.30792424
4	0x3f4d1b38	0.8011966
5	0x3e3e6b5f	0.18595646
6	0xbe836770	-0.25664854
7	0x3f28428f	0.6572656
8	0x3fce27c8	1.610589
9	0xbe9ea26c	-0.30983293
10	0xbf05edac	-0.52315784
11	0xbd96fbd1	-0.07372249
12	0xbf0ef65d	-0.5584467
13	0x3f5d5d22	0.86470234
14	0x3f4d6c53	0.80243415
15	0xbed9c36f	-0.42531916
16	0xbe3be794	-0.18350059
17	0x3f95b147	1.1694726
18	0xbf03060b	-0.51181096
19	0x3f1a4470	0.6026068
20	0x3fd1aaa5	1.6380202
21	0x3f68cc7d	0.90937024
22	0x3fa84871	1.3147107
23	0xbec7b69c	-0.39006507
24	0x3f18b1c6	0.5964626
25	0x3f83dd8d	1.0301987
26	0x3e490fc2	0.19634917
27	0x3f80a247	1.0049523
28	0x3f5fddef	0.8744802
29	0x3f676998	0.903955
30	0x3d19746d	0.037464548
31	0x3ee2cf61	0.44298843
32	0xbe238dd6	-0.15972075
33	0xbf053832	-0.5203887
34	0x3fbe3ee5	1.4862944
35	0x3f8d73e0	1.1050987
36	0xbefa4872	-0.48883396
37	0xbe9e5353	-0.30922946
38	0x3fa10721	1.25803
39	0x3f96b828	1.177495
40	0xbf0e090a	-0.5548254
41	0x3fd1c530	1.6388302
42	0x3ecb763a	0.39738637
43	0x3f22d6e5	0.63609153
44	0x3d7e21fa	0.06204412
45	0x3f90a4cf	1.1300296
46	0x3f19c8b8	0.600719
47	0x3f7691cf	0.96316236
48	0x3ef36b4f	0.47542807
49	0x3f836d88	1.0267801
50	0xbeaf7f78	-0.34276938
51	0x3fd6b4b1	1.6773893
52	0x3ec0de40	0.37669563
53	0xbef0b232	-0.47010952
54	0x3f23ee32	0.6403533
55	0x3f3df3cc	0.7420013
56	0xbec9aa15	-0.39387575
57	0x3f8e8c7f	1.1136626
58	0x3f2f8ac1	0.68571097
59	0xbeff008b	-0.49805102
60	0xbed86422	-0.42263895
61	0xbec9ea62	-0.39436632
62	0x3fa5a349	1.2940456
63	0x3f1fa19a	0.6235596

fc2.weight f4 [32, 64]
0	0x3ca173e2	0.019708578
1	0x3c36be19	0.011153721
2	0xbdb4cb3c	-0.088278264
3	0x3dbc9c1a	0.092094615
4	0x3dd33ad2	0.103139535
5	0xbdc44aaf	-0.09584557
6	0xbd7386a0	-0.05945456
7	0xbd8c4a01	-0.068500526
8	0xbd46b289	-0.04851011
9	0x3db2e600	0.08735275
10	0xbdd9b2b6	-0.106297895
11	0x3d1e6fda	0.03868089
12	0xbd640d1b	-0.05567656
13	0x3d418f65	0.047255892
14	0xbd254e3f	-0.040357824
15	0xbdc2d8d0	-0.0951401
16	0x3d918ec8	0.071073115
17	0x3d97ae28	0.074062645
18	0x3b9dff20	0.004821673
19	0xbda6d1dd	-0.08145497
20	0x3c073792	0.008252995
21	0xbdf23963	-0.11827352
22	0x3da33184	0.07968429
23	0x3d89ec10	0.067344785
24	0xbdd7007e	-0.10498141
25	0x3d6b87b6	0.05750247
26	0xbdad6d3e	-0.08468102
27	0xbd90c6e0	-0.070691824
28	0x3d7f2dd1	0.062299553
29	0xbd13c18a	-0.036073245
30	0x3d8802e6	0.06641178
31	0x3cc209ec	0.023686372
32	0xbb1ab7c0	-0.0023608059
33	0xbbdbcd60	-0.006707832
34	0x3cd530f2	0.026024316
35	0xbd7cf9df	-0.061761733
36	0xbc5fca30	-0.013659045
37	0xbc832e10	-0.016013175
38	0xbc47202a	-0.012153665
39	0xbdcf344d	-0.101173975
40	0x3d178e7d	0.03700112
41	0xbc18cda8	-0.009326376
42	0xbdcae7b3	-0.09907474
43	0xbdec7637	-0.11545985
44	0xbd3d974a	-0.04628686
45	0xbdaf891a	-0.08571072
46	0x3cb87f0e	0.022521522
47	0xbd8c0bd7	-0.06838196
48	0xbdd8ac1b	-0.105797015
49	0x3d28b13c	0.04118465
50	0x3d777820	0.060417295
51	0xbdc32142	-0.09527828
52	0x3da8005e	0.08203195
53	0xbd6512f8	-0.055926293
54	0x3da7a4ff	0.081857674
55	0x3d618758	0.055060714
56	0x3db5106b	0.08841022
57	0xbd82c4db	-0.063852035
58	0xbe165bd2	-0.14683464
59	0xbcf450b8	-0.029823646
60	0x3c53d80b	0.012929927
61	0xbd5a3df0	-0.053281724
62	0xbcf89c2d	-0.030347908
63	0xbdc4dc6d	-0.096123554
64	0xbd34ad18	-0.044110388
65	0x3db5eafa	0.08882709
66	0xbd7df6e0	-0.062003016
67	0x3cdf3718	0.02724795
68	0x3cf60298	0.030030534
69	0xbdd41ab6	-0.10356657
70	0x3dee2462	0.11628033
71	0xb9c35000	-0.00037252903
72	0xbdf44f74	-0.11929217
73	0x3d3ec3e0	0.04657352
74	0xbdedcbee	-0.11611162
75	0x3d8e5412	0.06949629
76	0xbd8cfcee	-0.0688418
77	0xbde2b938	-0.11070484
78	0xbc9b9808	-0.018993393
79	0xbd9d55d6	-0.076823875
80	0xbdbd69a8	-0.09248668
81	0x3ddceb44	0.10787061
82	0x3d32dd80	0.04366827
83	0xbc24a860	-0.010049909
84	0xbd6121bc	-0.054963812
85	0x3d0ebca0	0.034847856
86	0xbc2439f0	-0.010023579
87	0xbc5dd4d0	-0.013539508
88	0x3df67274	0.12033549
89	0xbd8d0b42	-0.06886913
90	0xbdb1f216	-0.08688752
91	0xbdf83066	-0.12118606
92	0x3daed0e2	0.08535935
93	0xbdd601be	-0.10449551
94	0x3c0a3e50	0.008437708
95	0xbdbcf272	-0.0922593
96	0xbda9c494	-0.082894474
97	0x3dc04aee	0.09389292
98	0xbdebd9fc	-0.115161866
99	0xbd97ef34	-0.07418671
100	0x3d5868b8	0.052834243
101	0xbc3992a0	-0.011326462
102	0xbd4f4f24	-0.050612584
103	0xbdbaaa62	-0.09114529
104	0xbcbf87a8	-0.023380116
105	0xbd04436c	-0.03229086
106	0x3cbdac18	0.02315335
107	0xbdaa47f8	-0.08314508
108	0xbdbf56de	-0.093427405
109	0xbcbee528	-0.02330263
110	0x3ca8ebb0	0.020620197
111	0x3db7a76a	0.089674786
112	0x3cbe4f50	0.023231179
113	0x3d93b68c	0.072125524
114	0xbd8184b2	-0.06324138
115	0x3dfc6634	0.12324181
116	0xbdca3d12	-0.098749295
117	0xbd915c0a	-0.07097633
118	0x3dba1d8c	0.09087667
119	0xbdaea9e2	-0.08528496
120	0xbd469cf0	-0.04848951
121	0x3d6e1ba0	0.058131814
122	0x3da56c40	0.08077288
123	0x3bac6220	0.005260721
124	0xbbba3ee0	-0.005683765
125	0x3db95d44	0.09050992
126	0xbc7c3900	-0.015394449
127	0x3ce7f928	0.02831705
128	0xbdb3b432	-0.08774604
129	0x3d7cadb4	0.061689094
130	0x3df39b2a	0.118948296
131	0x3d35f7f0	0.044425905
132	0xbdc2319a	-0.09482117
133	0x3cb2d6e8	0.02183099
134	0x3d7e11f0	0.062028825
135	0x3db2d12c	0.087313026
136	0x3d6d0bfc	0.057872757
137	0x3de29e6e	0.11065374
138	0xbd2e7cac	-0.042599365
139	0x3de1f934	0.1103386
140	0x3cbb6980	0.022877455
141	0xbdda5908	-0.106615126
142	0xbde1ed46	-0.110315844
143	0x3d421534	0.047383502
144	0xbd29bbec	-0.041438982
145	0xbd9b83cc	-0.07593498
146	0x3cb10120	0.021606982
147	0xbd311510	-0.043232977
148	0xbd302374	-0.04300256
149	0x3d7c8970	0.061654508
150	0x3d171774	0.0368876
151	0xbda87714	-0.08225837
152	0x3da488c6	0.080339
153	0xbd2e7ab4	-0.042597488
154	0xbc9e5ae8	-0.019330457
155	0xbd621880	-0.055199146
156	0xbce5f2d8	-0.028069898
157	0xbd9bd986	-0.07609849
158	0xbcc5a768	-0.024127677
159	0xbd9a0cf4	-0.07522002
160	0x3d3c7178	0.04600665
161	0x3dcbe8a4	0.09956482
162	0xbd286140	-0.04110837
163	0x3dcf5bae	0.101249084
164	0x3dfe83ba	0.124274686
165	0x3df0b3d6	0.11753051
166	0xbd44eb20	-0.048075795
167	0x3c056310	0.008141294
168	0xbdeccad0	-0.11562121
169	0xbd2151e8	-0.039384753
170	0xbd801476	-0.062539026
171	0xbdbb9b12	-0.09160437
172	0x3df1398c	0.11778554
173	0x3d915d4a	0.070978716
174	0x3da0aa5a	0.07844992
175	0xbdda7eae	-0.106686935
176	0x3bad1a40	0.0052826703
177	0x3dbf5ea6	0.09344225
178	0xbcf443e8	-0.029817536
179	0xbdba31e0	-0.09091544
180	0xbdbc7aca	-0.09203108
181	0xbdac034c	-0.08399066
182	0xbd11422c	-0.035463497
183	0x3b818680	0.003952801
184	0xbd37ce98	-0.044874758
185	0x3d8fa000	0.070129395
186	0xbdfe5fc8	-0.124206126
187	0x3d0fbfe0	0.035095096
188	0x3d90e1a2	0.07074286
189	0x3bf93540	0.007605225
190	0xbdfa0888	-0.122086585
191	0x3c0a0f00	0.008426428
192	0x3f37fce2	0.71870244
193	0xbec04585	-0.3755304
194	0xbe65b9e6	-0.22434196
195	0x3e5f90f2	0.21832636
196	0x3e6e85bd	0.23293205
197	0xbec8652f	-0.39139697
198	0xbc9024f0	-0.017595738
199	0x3f2f91e9	0.68582016
200	0xbecddbd4	-0.40206778
201	0x3d9a9f7c	0.075499505
202	0x3db15e84	0.086606055
203	0x3f8b896c	1.0901313
204	0x3f3cfeed	0.73826486
205	0xbc22a0a8	-0.009925999
206	0x3e7700f2	0.24121454
207	0xbd681f10	-0.05667025
208	0xbd3e9b44	-0.04653479
209	0x3f2e316d	0.6804417
210	0xbc123940	-0.008924782
211	0x3f1daeb0	0.61594677
212	0xbea45969	-0.32099465
213	0xbe37dffa	-0.17956534
214	0xbf1c70b6	-0.61109483
215	0x3d273ea8	0.040831238
216	0x3d18cba3	0.037303578
217	0x3f07858a	0.5293814
218	0x3ee6bf0e	0.45067638
219	0x3f038860	0.51379967
220	0x3ac6da80	0.0015171319
221	0xbf625a21	-0.88418776
222	0x3d2a8bb7	0.04163715
223	0x3f792934	0.97328496
224	0xbde1143e	-0.10990189
225	0xbdc8b1fe	-0.09799574
226	0xbf0fcab9	-0.56168705
227	0xbe1d1b0e	-0.15342352
228	0xbd8a7736	-0.06761019
229	0x3d880fdc	0.0664365
230	0x3d8bd65c	0.06827995
231	0xbed855b6	-0.42252892
232	0x3f805980	1.0027313
233	0xbe274301	-0.16334154
234	0x3f5e5367	0.8684601
235	0x3de6b9d3	0.11265912
236	0x3eead3de	0.45864767
237	0x3a90ac01	0.0011037589
238	0x3e9329fb	0.28742966
239	0x3f343e49	0.7040754
240	0x3efe0165	0.4961044
241	0x3ee6c775	0.4507405
242	0x3b913940	0.0044318736
243	0xbf288f92	-0.6584407
244	0x3e97dc50	0.29660273
245	0xbcb201e0	-0.02172941
246	0x3e213bc4	0.15745455
247	0xbf36e726	-0.71446455
248	0x3f956d1c	1.1673923
249	0x3f16cb7c	0.5890424
250	0xbed9a9d3	-0.42512378
251	0x3c1b8670	0.009492502
252	0x3ed6d65b	0.41960415
253	0x3ec94461	0.3930998
254	0x3f31b45e	0.69415843
255	0x3f3fdec8	0.7494931

fc2.bias f4 [32]
0	0x3d2107f7	0.039314236
1	0x3d76bd50	0.060239136
2	0x3d302440	0.04300332
3	0xbd98d6d7	-0.074628524
4	0xbdfd02d2	-0.123540536
5	0xbe2ba6ac	-0.16762799
6	0x3c136c61	0.0089980075
7	0x3e415ca5	0.18882997
8	0xbde38c34	-0.11110726
9	0xbca8ef39	-0.020621883
10	0xbdba3e27	-0.09093886
11	0xbd4b6615	-0.0496579
12	0x3ee868a1	0.45392326
13	0x3f017cac	0.5058086
14	0xbdfb81a2	-0.12280585
15	0x3eed85a5	0.46391025
16	0x3d36e43b	0.04465125
17	0xbd3c0888	-0.045906574
18	0x3eb5b6c3	0.35491
19	0xbd9a27f4	-0.07527152
20	0x3d9a413c	0.07531974
21	0xbd731e27	-0.059354927
22	0xbd4493f6	-0.04799267
23	0x3ce9553b	0.028483024
24	0x3d9fbbfa	0.077995256
25	0x3ec69f53	0.3879343
26	0xbdcd7df6	-0.10033791
27	0x3f0faa0e	0.5611886
28	0xbdaf8e5f	-0.08572077
29	0xbdd7ff3e	-0.105467305
30	0x3ec4bdb9	0.38425997
31	0x3c55cd6c	0.013049465

fc3.weight f4 [1291, 32]
0	0x3be5d882	0.007014335
1	0x3d6d6098	0.057953447
2	0x3c939860	0.018016994
3	0xbe02e493	-0.12782507
4	0xbe7612ad	-0.24030562
5	0xbe61bf73	-0.22045688
6	0xbd9940e3	-0.07483079
7	0xbdb99924	-0.090624124
8	0xbde51e2d	-0.11187396
9	0xbdaf12d5	-0.08548514
10	0x3d5d774a	0.05406884
11	0x3dabc4e8	0.08387166
12	0xbea5c4cd	-0.3237671
13	0x3c63d6f2	0.013906227
14	0x3e01c213	0.1267169
15	0x3dd0e2f8	0.10199541
16	0xbe10ae2d	-0.14128943
17	0xbe0f7889	-0.14010824
18	0xc02474ba	-2.5696244
19	0xbe98f4a2	-0.2987414
20	0x3e17e2d9	0.1483263
21	0xbe3c74c3	-0.18403916
22	0xbe0a80e4	-0.1352573
23	0xbe371dfa	-0.17882529
24	0xbf71ab6e	-0.94402206
25	0xbf06810d	-0.52540666
26	0xbdaa032c	-0.08301386
27	0xbe415f19	-0.18883933
28	0xbddec4fd	-0.10877416
29	0x3df908ee	0.12159906
30	0x3ddbdea2	0.10735823
31	0xbe675950	-0.22592664
32	0xbe848c4b	-0.25888285
33	0xbc0de8e0	-0.008661479
34	0xbdfc3939	-0.12315602
35	0xbf487515	-0.78303653
36	0xbed900e0	-0.4238348
37	0xbe5ad1f5	-0.21369155
38	0xbe0eefc0	-0.13958645
39	0xbdb073c8	-0.086158335
40	0x3e1e4e58	0.15459573
41	0xbda631d9	-0.081149764
42	0x3d35ee7e	0.044416897
43	0x3db5fb00	0.08885765
44	0xbd26ff39	-0.040770743
45	0xbf970f55	-1.1801554
46	0xbe19d1a8	-0.15021384
47	0xbd43bb91	-0.0477863
48	0xbe2431a1	-0.16034557
49	0xbd27079c	-0.04077874
50	0x3d4d83ec	0.05017464
51	0xbdde8a2c	-0.10866198
52	0x3e0bab67	0.13639604
53	0x3e0ceb58	0.13761652
54	0x3bfe82aa	0.007767041
55	0xbf6031f7	-0.8757624
56	0xbd05da10	-0.032678664
57	0xbe61cf4c	-0.22051734
58	0x3e299281	0.16559793
59	0x3dbe3271	0.09286965
60	0xbd9bd09c	-0.076081485
61	0x3c6d1120	0.014469415
62	0xbf277f22	-0.65428364
63	0x39b409f4	0.0003433969
64	0xbe87e02a	-0.2653821
65	0xbe19aafe	-0.15006635
66	0xbdb0c55a	-0.08631392
67	0xbd10cbf2	-0.035350747
68	0xbd22b1a6	-0.0397202
69	0xbe4d7403	-0.20063786
70	0xbdaadbde	-0.083427176
71	0xbe0b9be2	-0.13633683
72	0xbdb81419	-0.08988208
73	0x3dccc213	0.09997954
74	0x3e23fdd0	0.1601479
75	0x3d0f2a09	0.034952197
76	0xbe9021e6	-0.28150862
77	0xbe52a0d9	-0.20569171
78	0xbe081bd8	-0.13291872
79	0xbe3c2fb1	-0.18377568
80	0xbe1a95a3	-0.15096144
81	0x3cbfb078	0.023399577
82	0xbf4000c9	-0.750012
83	0x3da4dc44	0.08049825
84	0xbdb37f99	-0.08764572
85	0x3df73769	0.120711155
86	0xbdedfde7	-0.11620694
87	0xbca9e4c4	-0.020738967
88	0xbe6fe84d	-0.2342846
89	0xbeccba31	-0.39985803
90	0xbdde3ff7	-0.10852044
91	0xbeddb74d	-0.4330391
92	0x3e0634ea	0.13106123
93	0x3d202750	0.03909999
94	0xbdc0b163	-0.09408834
95	0xbe2e806a	-0.17041174
96	0x3c825d7d	0.01591372
97	0xbd4bc2b8	-0.049746245
98	0x3c03ed20	0.0080521405
99	0x3cdec35d	0.027192766
100	0xbebbf609	-0.36711147
101	0x3d8aac93	0.06771197
102	0xbc9fbfcf	-0.019500641
103	0xbcb0f1df	-0.021599708
104	0x3d176c18	0.03696832
105	0x3d3759ff	0.04476356
106	0xbe17aec0	-0.14812756
107	0x3d953e4f	0.07287275
108	0xbe96ca1a	-0.29451066
109	0xbf5b554e	-0.8567704
110	0xbd0cc3dc	-0.034366474
111	0xbe4b637a	-0.19862166
112	0x3db244b3	0.087045096
113	0xbdd70577	-0.10499089
114	0xbe68b4ee	-0.22725269
115	0xbd2e13e5	-0.04249944
116	0xbbad3bc0	-0.005286664
117	0x3d0c10cc	0.034195706
118	0x3d9bed9a	0.07613678
119	0xbeaddb78	-0.33956504
120	0xbe4e12f1	-0.20124413
121	0xbeb59266	-0.35463256
122	0x3cbdaa48	0.023152485
123	0xbf110e03	-0.56662005
124	0xbd557fba	-0.052123763
125	0xbcf55990	-0.029949933
126	0xbeb0fce1	-0.3456793
127	0xbe14a5d6	-0.14516386
128	0xbe38e62d	-0.18056555
129	0xbd58f28e	-0.052965693
130	0x3e008e3f	0.12554263
131	0x3da9834b	0.08276995
132	0xbe63bd77	-0.22240244
133	0xbee33d57	-0.44382736
134	0xbe28dbb2	-0.16490057
135	0xbed0a48f	-0.40750548
136	0x3e0493b6	0.12946972
137	0xbdd51d87	-0.104060225
138	0x3d24d5bc	0.040242895
139	0xbcedc37e	-0.029023882
140	0xbe8ee550	-0.27909327
141	0xbe46f84a	-0.19430652
142	0xbd1c7824	-0.038200513
143	0xbe1b7081	-0.15179636
144	0xbdbb58fb	-0.09147831
145	0x3d28c68c	0.041204974
146	0xbe8d468f	-0.27592894
147	0xbc1d69bc	-0.009607729
148	0xbdfe2b50	-0.12410605
149	0xbd6a2d12	-0.05717189
150	0xbd8c665a	-0.068554595
151	0x3d834487	0.06409555
152	0xbe513651	-0.20430876
153	0xbd3e74fc	-0.046498284
154	0x3e1006d9	0.14065112
155	0xbf16a587	-0.58846325
156	0xbd90f20e	-0.07077418
157	0xbe030005	-0.12792976
158	0xbe8bca26	-0.27302665
159	0xbea463ac	-0.32107294
160	0xbd922960	-0.07136798
161	0xbb96a080	-0.00459677
162	0x3d128438	0.035770625
163	0xbdaae120	-0.083437204
164	0xbe2b4a32	-0.16727522
165	0xbe67f46d	-0.22651835
166	0xbe0579af	-0.130347
167	0xbe8cd954	-0.27509558
168	0xbd977b12	-0.07396521
169	0xbdecf895	-0.11570851
170	0x3e1b0794	0.1513961
171	0xbba567a4	-0.0050477553
172	0xbdebfcfa	-0.11522861
173	0xbe79f72f	-0.244107
174	0xbd82fcc5	-0.06395868
175	0xbda0e06c	-0.07855305
176	0x3e15510a	0.14581695
177	0x3c637500	0.013882875
178	0xbf30d90a	-0.69081175
179	0x3cd5eaef	0.026113002
180	0xbdf1c53e	-0.11805199
181	0x3d8d4e4d	0.068997
182	0xbe324007	-0.17407237
183	0xbcffaa75	-0.03120921
184	0xba931e40	-0.0011224225
185	0xbeb81c0c	-0.35958898
186	0xbc8c7948	-0.017147675
187	0xbd94356d	-0.07236753
188	0xbd4735a0	-0.048635125
189	0xbdb02e8a	-0.086026266
190	0xbde6a255	-0.11261431
191	0xbd8ee45d	-0.069771506
192	0xbc195dd7	-0.009360752
193	0xbbeb6c00	-0.0071845055
194	0xbe284dd1	-0.16435935
195	0xbe131b4c	-0.14365882
196	0xbe8151c6	-0.252577
197	0xbe45f490	-0.19331574
198	0x3d590cd0	0.052990735
199	0xbea1a206	-0.31568927
200	0xbe4ae126	-0.1981245
201	0xbea3506c	-0.31897295
202	0x3db32c08	0.08748633
203	0x3ad4384b	0.0016191093
204	0xbe157afb	-0.14597695
205	0xbda9086a	-0.08253558
206	0x3e1c5665	0.15267332
207	0x3cf1e103	0.02952624
208	0xbd9b73af	-0.07590424
209	0x3ccdb3c0	0.025110126
210	0xbfbebfaa	-1.4902241
211	0xbec44c12	-0.38339287
212	0xbac89900	-0.0015304387
213	0xbde47453	-0.111549996
214	0x3da328b7	0.0796675
215	0x3dd412a8	0.10355121
216	0xbf2ec081	-0.6826249
217	0xbe9b1c4c	-0.30295026
218	0x3c815c10	0.01579097
219	0x3e1bab59	0.15202083
220	0x3d40d59c	0.047078714
221	0x3ded87f6	0.11598198
222	0x3ce1c14d	0.027557993
223	0xbec78a58	-0.38972735
224	0xbe86c156	-0.2631938
225	0x3e217b9b	0.15769808
226	0xbdf17ba4	-0.11791161
227	0xbd8cf69d	-0.06882975
228	0xbe979fee	-0.29614204
229	0x3c2cada1	0.010539443
230	0x3d014eef	0.031569418
231	0xbe00a084	-0.12561232
232	0x3cdf2e52	0.027243767
233	0xbe21ff3f	-0.15820025
234	0x3d1eeea0	0.03880179
235	0xbdc45ae3	-0.09587648
236	0xbebdeaf3	-0.37093315
237	0xbe70b1de	-0.23505351
238	0xbe1d716c	-0.15375298
239	0xbcf587ca	-0.029971976
240	0xbd22c7bb	-0.03974126
241	0x3dada1aa	0.084781006
242	0xbec076d1	-0.3759065
243	0xbe326789	-0.17422308
244	0xbdd05da9	-0.10174114
245	0x3e03a6c8	0.12856591
246	0x3da21ab7	0.07915252
247	0xbd010d8a	-0.031507052
248	0xbdf28c05	-0.11843113
249	0xbeff0e51	-0.4981561
250	0xbddadb32	-0.106863394
251	0xbe52105c	-0.20514053
252	0xbd43fe64	-0.047850028
253	0x3e319c0f	0.17344688
254	0xbe38cc24	-0.18046623
255	0xbe078009	-0.13232435

fc3.bias f4 [1291]
0	0xbe03987f	-0.12851141
1	0xbdbee3d0	-0.093207955
2	0x3d7841e5	0.060609717
3	0xbe634cae	-0.2219722
4	0xbc3d4c19	-0.011553788
5	0x3da270ab	0.07931646
6	0xbcee2977	-0.029072506
7	0xbdba634e	-0.09100972
8	0xbd15b7ef	-0.036552366
9	0x3d9cad25	0.07650212
10	0xbddb77a3	-0.10716178
11	0x3d254c1f	0.040355798
12	0xbe12cc23	-0.14335684
13	0x3dc2c293	0.09509768
14	0xbe745777	-0.2386149
15	0xbc92c4fd	-0.017916197
16	0x3d4faf24	0.050704136
17	0xbe552f86	-0.2081891
18	0x3df8d2b3	0.12149563
19	0xbd161310	-0.036639273
20	0xbdfc5f07	-0.123228125
21	0xbd54ba08	-0.051935226
22	0xbd2c3e1f	-0.04205143
23	0xbea5a1de	-0.32350057
24	0x3ddcab76	0.10774891
25	0xbe56d1b9	-0.2097844
26	0x3d3c752f	0.046010192
27	0xbe5db705	-0.21651848
28	0x3bb2a1a5	0.0054513984
29	0xbed51252	-0.4161554
30	0xbda8b200	-0.08237076
31	0xbe47ef07	-0.19524775
32	0xbea1a61d	-0.31572047
33	0x3d982ea5	0.07430772
34	0xbdaf2bdd	-0.08553288
35	0xbe168aea	-0.14701429
36	0xbe267a2d	-0.16257544
37	0xbdf63e55	-0.12023608
38	0xbe2226bd	-0.1583509
39	0x3dd249cc	0.10267982
40	0x3de1831a	0.11011334
41	0xbe3ef814	-0.18649322
42	0xbda20375	-0.079108156
43	0xbe98bb0f	-0.29830214
44	0xbe29a9bc	-0.16568655
45	0x3d0758f8	0.03304383
46	0x3d20760a	0.03917507
47	0xbd049850	-0.03237182
48	0xbec6e10a	-0.38843566
49	0xbed2a43d	-0.4114093
50	0x3e63f4f5	0.22261412
51	0xbe9cba4f	-0.30610892
52	0xbdff2a05	-0.124591865
53	0x3d2f709d	0.042832006
54	0xbe81d2f9	-0.25356272
55	0xbe0d6d48	-0.13811219
56	0xbd980afb	-0.07423969
57	0xbe320e6c	-0.17388314
58	0xbba51227	-0.0050375643
59	0xbde24449	-0.110481806
60	0xbcbdff25	-0.023192951
61	0x3e06d9bf	0.13169001
62	0x3dc500a9	0.096192665
63	0xbe5c63fe	-0.21522519
64	0xbddee54f	-0.10883581
65	0xbe0fee35	-0.14055713
66	0xbe462ff2	-0.19354227
67	0x3e282f69	0.16424336
68	0xbccb3bfe	-0.02480888
69	0xbde2dcc3	-0.11077263
70	0xbcd06488	-0.025438562
71	0xbe6cf56e	-0.23140499
72	0x3dc5f5ec	0.096660465
73	0x3c90e8e0	0.017689168
74	0xbe387163	-0.18012004
75	0xbe01e87e	-0.12686345
76	0xbe019733	-0.12655334
77	0xbe397c0a	-0.18113723
78	0xbeae701a	-0.34069902
79	0x3d48019f	0.04882967
80	0x3d410f20	0.047133565
81	0xbe076077	-0.13220392
82	0xbda25806	-0.079269454
83	0x3d8c7af7	0.06859391
84	0x3e3fb863	0.18722682
85	0xbe6bb090	-0.23016572
86	0x3dbfc3e9	0.09363539
87	0x3dbd91aa	0.09256299
88	0x3e314f74	0.17315465
89	0xbe34e049	-0.17663683
90	0xbe473f3b	-0.19457714
91	0xbdb043b6	-0.08606665
92	0xbce41328	-0.027841166
93	0xbe54abea	-0.20768705
94	0xbe58efd9	-0.21185245
95	0x3dc5ed64	0.09664419
96	0x3dc8b283	0.097996734
97	0x3dd065e1	0.10175682
98	0xbe09f919	-0.1347393
99	0xbe36a551	-0.178365
100	0xbe8d9e7f	-0.27659985
101	0x3ddb8e1d	0.10720465
102	0xbd78738e	-0.060657077
103	0x3e01d517	0.12678944
104	0xbe0be6a5	-0.13662203
105	0xbe37cc88	-0.17949116
106	0xbe65714a	-0.22406498
107	0x3e06904e	0.13140985
108	0xbcb9dc09	-0.022687929
109	0xbdd89a0c	-0.10576257
110	0x3d742801	0.059608463
111	0xbe00dde6	-0.12584648
112	0xbd98cb5c	-0.07460663
113	0xbe9b5720	-0.3033991
114	0xbe0882b7	-0.13331114
115	0x3d8beb42	0.06831981
116	0x3e021d8a	0.12706581
117	0xbd65fbae	-0.056148224
118	0x3d18ba10	0.037286818
119	0x3e08446d	0.13307352
120	0x3dc69bc4	0.09697679
121	0x3de79f9c	0.1130974
122	0x3cb9c3d4	0.022676386
123	0xbeb38752	-0.3506418
124	0xbdbc92a5	-0.09207658
125	0x3d813b6c	0.06310162
126	0xbe019098	-0.12652814
127	0xbe520e23	-0.20513205
128	0xbe3e9ce0	-0.1861453
129	0xbdfe374b	-0.1241289
130	0x3dc4b85e	0.09605478
131	0xbdc61281	-0.09671498
132	0x3d3564ea	0.044285692
133	0xbe0effab	-0.13964717
134	0x3c56d985	0.013113384
135	0xbdec5ba7	-0.11540919
136	0xbddb3b21	-0.10704637
137	0xbe1dd517	-0.15413319
138	0xbe37736c	-0.17915124
139	0x3d9a00b5	0.07519666
140	0xbe78c65e	-0.24294421
141	0xbda7d01a	-0.08193989
142	0x3da6e7c5	0.08149675
143	0x3d07c7ea	0.033149637
144	0xbe042c74	-0.12907583
145	0xbe1e1ded	-0.15441103
146	0x3b246d5e	0.0025089602
147	0xbe8d5c6f	-0.27609584
148	0xbe1a2375	-0.15052588
149	0xbd96c9f8	-0.07362741
150	0x3c1b911e	0.009495048
151	0x3dd9885e	0.10621713
152	0xbdef2250	-0.116764665
153	0xbd74ed77	-0.059796777
154	0xbe45e1b8	-0.19324386
155	0xbec1a08f	-0.3781781
156	0x3e066bc8	0.13127053
157	0x3cad0a4a	0.02112307
158	0xbe4b255a	-0.19838467
159	0x3d06a96d	0.03287642
160	0xbe265df2	-0.16246775
161	0x3d979ec5	0.0740333
162	0xbe18cf57	-0.14922844
163	0x3df56bc8	0.11983448
164	0xbd84fa50	-0.06493056
165	0xbe0fb269	-0.14032902
166	0xbe2d45d9	-0.16921176
167	0x3c6c3365	0.01441655
168	0xbc859a1c	-0.016308837
169	0xbd14edfd	-0.036359776
170	0xbddf1a1d	-0.108936526
171	0xbde79beb	-0.11309036
172	0xbde20374	-0.11035815
173	0xbddda2b7	-0.10822051
174	0x3df920f9	0.12164492
175	0xbc8b290f	-0.016987352
176	0xbea59988	-0.32343698
177	0x3c82484f	0.01590362
178	0x3d63f7da	0.05565629
179	0xbdb186c3	-0.08668282
180	0xbe67a3c0	-0.2262106
181	0xbe6a21c2	-0.2286444
182	0x3d96caf1	0.07362927
183	0x3e311b0b	0.17295472
184	0xbb9a5cf6	-0.004710789
185	0xbcf1c4a7	-0.029512716
186	0xbe9f5c51	-0.3112512
187	0x3d95fba2	0.07323386
188	0x3e41b81f	0.18917893
189	0x3d9b6b0b	0.07588776
190	0x3e4351df	0.190742
191	0x3dd6cbde	0.10488103
192	0xbce70e64	-0.028205104
193	0x3e0aeda3	0.13567214
194	0xbea90c92	-0.33017403
195	0x3da3cbec	0.079978794
196	0x3d88a073	0.06671228
197	0x3daec26a	0.08533175
198	0xbe2dc519	-0.16969718
199	0xbdad8ced	-0.08474145
200	0xbe2d5927	-0.1692854
201	0xbe58541a	-0.21125832
202	0xbe0244bd	-0.12721534
203	0x3d730bac	0.059337303
204	0xbdd31cc4	-0.10308221
205	0xbd893ff7	-0.067016535
206	0xbd7ae7d2	-0.061256237
207	0xbd0e6ca8	-0.03477159
208	0xbe702a6e	-0.23453686
209	0xbeaabcff	-0.33347318
210	0xbe1f0d3c	-0.15532392
211	0xbba68fba	-0.0050830515
212	0xbe1d4610	-0.15358758
213	0xbc3eb97b	-0.011640902
214	0x3c985fde	0.0186004
215	0xbe019d80	-0.12657738
216	0x3dece32e	0.115667686
217	0x3d895ec5	0.06707529
218	0xbe4d7cb8	-0.20067108
219	0x3ada0413	0.0016633294
220	0xbe985ff6	-0.29760712
221	0xbe07d344	-0.13264185
222	0xbe0eb041	-0.13934423
223	0xbc765b10	-0.015036359
224	0x3de21598	0.11039275
225	0xbe114b81	-0.14188959
226	0x3cb74c00	0.022375107
227	0x3d7b927d	0.061419
228	0xbdfb9efb	-0.122861825
229	0xbe20cf42	-0.15704063
230	0x3d58af73	0.052901696
231	0xbed1dfb7	-0.40990993
232	0x3e11f0b7	0.14251982
233	0xbe027d01	-0.12742998
234	0xbe0fcf7b	-0.14043991
235	0x3ddcafe7	0.10775738
236	0xbdf2dd7c	-0.11858651
237	0x3e1ae466	0.1512619
238	0xbe4e9879	-0.20175351
239	0xbd9fd6fb	-0.07804676
240	0xbe237111	-0.159611
241	0xbdb0eeb3	-0.08639278
242	0x3bd730c5	0.006567093
243	0xbe624989	-0.22098364
244	0xbedccc4d	-0.4312462
245	0xbe830aa5	-0.2559406
246	0xbd1f9e03	-0.03896905
247	0xbe2e40d5	-0.17016919
248	0xbd825ed3	-0.063657425
249	0x3d77e060	0.060516715
250	0xbd9984b5	-0.07496015
251	0x3da58684	0.080822974
252	0xbdac13bb	-0.08402201
253	0x3daad694	0.08341709
254	0xbdd1693b	-0.10225149
255	0x3e0132db	0.12617056
